…
   "id": "ce6ccb28-07ee-4cc0-a5c5-c40a3fbdff76",
   "metadata": {},
   "outputs": [],
   "source": []
  },
  {
   "cell_type": "code",
   "execution_count": 34,
   "id": "57df93c4-0b46-4fc9-b645-716d4071f60e",
   "metadata": {},
   "outputs": [
    {
     "name": "stdout",
     "output_type": "stream",
     "text": [
      "Model: \"sequential\"\n",
      "_________________________________________________________________\n",
      " Layer (type)                Output Shape              Param #   \n",
      "=================================================================\n",
      " conv1d (Conv1D)             (None, 163, 256)          1536      \n",
      "                                                                 \n",
      " max_pooling1d (MaxPooling1D  (None, 82, 256)          0         \n",
      " )                                                               \n",
      "                                                                 \n",
      " conv1d_1 (Conv1D)           (None, 82, 256)           327936    \n",
      "                                                                 \n",
      " max_pooling1d_1 (MaxPooling  (None, 41, 256)          0         \n",
      " 1D)                                                             \n",
      "                                                                 \n",
      " conv1d_2 (Conv1D)           (None, 41, 128)           163968    \n",
      "                                                                 \n",
      " max_pooling1d_2 (MaxPooling  (None, 21, 128)          0         \n",
      " 1D)                                                             \n",
      "                                                                 \n",
      " dropout (Dropout)           (None, 21, 128)           0         \n",
      "                                                                 \n",
      " conv1d_3 (Conv1D)           (None, 21, 64)            41024     \n",
      "                                                                 \n",
      " max_pooling1d_3 (MaxPooling  (None, 11, 64)           0         \n",
      " 1D)                                                             \n",
      "                                                                 \n",
      " flatten (Flatten)           (None, 704)               0         \n",
      "                                                                 \n",
      " dense (Dense)               (None, 32)                22560     \n",
      "                                                                 \n",
      " dropout_1 (Dropout)         (None, 32)                0         \n",
      "                                                                 \n",
      " dense_1 (Dense)             (None, 5)                 165       \n",
      "                                                                 \n",
      "=================================================================\n",
      "Total params: 557,189\n",
      "Trainable params: 557,189\n",
      "Non-trainable params: 0\n",
      "_________________________________________________________________\n"
     ]
    }
   ],
   "source": [
    "model=Sequential()\n",
…
